exercise_08/lightning_logs/cĺs_logs/version_15/checkpoints/epoch=2999-step=6000.ckpt (torch, 983038 bytes, 12 tensors)

encoder.encoder.0.weight f4 [256, 784]
0.0144624375 -0.0051893163 0.0093396455 -0.007601086 0.0064301565 0.016747832 -0.030161098 -0.0076708067
1.803413e-05 -0.0059078895 -0.017638087 0.028679226 -0.023688832 0.015594181 0.034957077 0.0032636113
-0.018543014 -0.021194175 0.019782763 0.01216137 0.028738033 0.013899602 0.0050920546 0.006774511
0.027958062 0.018095296 0.0060710013 0.01446002 0.019845705 0.031264056 0.007678412 0.006012995
-0.018108543 -0.011490146 0.0034544207 0.026984427 -0.02941449 -0.01782753 0.020077754 -0.011144942
-0.034386326 -0.026255146 -0.015395204 0.028025772 -0.0131212305 0.023298737 -0.0012007654 -0.03481593
0.016844604 0.0044533834 -0.0131057 -0.021830717 0.026859235 -0.011594079 -0.007388562 0.028150622
0.032936897 -0.034206815 0.00710148 0.03182623 0.034916233 -0.019568682 -0.025739364 0.025409248
0.0044537745 0.02716251 -0.03465658 0.028820258 -0.019053916 -0.030791271 -0.001633402 0.028889384
0.023449503 -0.031470284 0.014603194 -0.029632544 -0.00089275464 -0.025484577 -0.013161421 0.0046200827
-0.026978489 0.015351392 0.014056329 -0.0033740625 -0.03237108 -0.0026683733 -0.02487903 -0.03176657
0.018683854 -0.010139244 0.03414752 -0.011165939 0.02493544 -0.023577258 0.0188496 -0.03545261
-0.0006422736 0.00023589656 0.012726907 0.025659133 -0.012504851 -0.008298688 0.013010763 0.006234605
-0.023260858 0.030788515 0.026407529 0.031378996 0.027220313 0.030758042 0.019837108 -0.0326506
-0.024393197 -0.004932698 0.022447262 -0.010891676 0.001003582 -0.016068779 0.021923233 0.005989816
0.017790373 -0.0203331 -2.0194799e-05 0.018090516 -0.00196442 0.0038199984 0.009591106 0.0043478087
-0.027792979 -0.02500615 -0.028084582 -0.032131728 -0.011829918 -0.0013847388 0.024463668 0.0047145523
0.0182155 -0.021644661 0.007380519 0.010408286 -0.0053272936 0.03298978 0.023492418 -0.032292504
0.02237188 0.014150966 -0.027699476 0.034579303 -0.034551993 0.009532049 0.021029752 0.012419764
0.02049021 0.034519415 0.031570498 0.024855103 -0.02884781 0.02907284 -0.028932735 0.004008826
0.023053855 -0.02107459 -0.003009405 -0.010775059 -0.017615672 0.016348418 -0.015489157 0.008637615
-0.03221954 -0.008422878 -0.021429863 0.0034290068 -0.01867517 0.005403675 0.03356198 0.024027124
0.033691954 -0.034396306 -0.0037136078 -0.005646808 0.029616427 -0.023108479 0.007838935 0.003689319
-0.014242185 0.0082519725 -0.031034548 0.001631625 0.005634006 0.016819496 0.015377417 0.014191188
-0.028841522 -0.027783608 0.0025848448 0.017347127 -0.026983777 0.017711975 0.032714617 -0.0015680604
0.031377595 -0.003113348 0.031344946 -0.03353835 0.030471783 -0.0014757775 -0.013503766 -0.035445757
-0.01100865 -0.0173812 -0.02999417 -0.0349427 -0.013607591 0.0147806555 0.03077541 0.0296042
-0.00030241534 -0.0261136 0.006520856 -0.002955377 -0.018133279 0.01923582 0.026348047 -0.019881994
0.017296322 -0.029478198 -0.016998416 -0.0082798265 0.015310496 -0.011287238 0.027430672 0.011941768
-0.018734166 -0.0352633 -0.022526002 0.017071959 -0.0031816885 0.03295132 -0.029263813 0.0042928346
-0.021225423 -0.0282427 0.022880953 -0.026552409 0.033207584 0.0323856 -0.027692456 0.02512917
-0.03314782 0.015270196 -0.034524765 -0.027522871 0.035004396 -0.022258759 -0.01519922 0.005938124
00000000: dcf3 6c3c 240b aabb 5005 193c 8812 f9bb
00000010: 10b4 d23b c032 893c 6814 f7bc 645b fbbb
00000020: 0048 9737 f896 c1bb c07d 90bc b2f0 ea3c
00000030: 150f c2bc bc7e 7f3c 272f 0f3d 50e2 553b
00000040: 85e7 97bc 689f adbc 760f a23c 7c40 473c
00000050: 066c eb3c 28bb 633c 40db a63b b8fc dd3b
00000060: 4e08 e53c 963c 943c 40ef c63b b8e9 6c3c
00000070: 7693 a23c bd0e 003d 309b fb3b a808 c53b
00000080: 5e58 94bc 2a41 3cbc 9063 623b 720e dd3c
00000090: a8f6 f0bc 0a0b 92bc 1a7a a43c 4699 36bc
000000a0: add8 0cbd 0815 d7bc 2a3c 7cbc 4e96 e53c
000000b0: 6efa 56bc fedc be3c 0063 9dba 269b 0ebd
000000c0: b2fd 893c b0ed 913b 4ab9 56bc 55d6 b2bc
000000d0: e607 dc3c 18f5 3dbc c01b f2bb 229c e63c
000000e0: d7e8 063d 721c 0cbd 88b3 e83b 395c 023d
000000f0: 5304 0f3d 804e a0bc 5cdb d2bc 0e27 d03c
00000100: f8f0 913b ea83 de3c 0ff4 0dbd 7618 ec3c
00000110: f516 9cbc fa3d fcbc e017 d6ba 6ea9 ec3c
00000120: 2c19 c03c fce6 00bd 3c42 6f3c f3bf f2bc
00000130: c007 6aba 08c5 d0bc 00a3 57bc 1064 973b
00000140: fe01 ddbc 6884 7b3c 844c 663c 601f 5dbb
00000150: 8a97 04bd e0df 2ebb 1ccf cbbc aa1d 02bd
00000160: e20e 993c 121f 26bc 45de 0b3d 58f1 36bc
00000170: 6845 cc3c 1825 c1bc 7a6a 9a3c c236 11bd
00000180: 405e 28ba 005b 7739 8484 503c 1a33 d23c
00000190: 26e1 4cbc 38f7 07bc 182b 553c a84b cc3b
000001a0: 8e8d bebc 3238 fc3c 9a54 d83c 4387 003d
000001b0: 22fd de3c 4af8 fb3c 6e81 a23c a3bc 05bd
000001c0: 3ed4 c7bc 78a2 a1bb 52e3 b73c 0073 32bc
000001d0: a08a 833a aca2 83bc 5a98 b33c 3846 c43b
000001e0: 1ebd 913c 9a91 a6bc 0068 a9b7 9032 943c
000001f0: 80bd 00bb f058 7a3b 0424 1d3c 1078 8e3b
00000200: 1aae e3bc b3d9 ccbc a311 e6bc 8f9c 03bd
00000210: 46d2 41bc 2080 b5ba 0868 c83c 887c 9a3b
00000220: ac38 953c 2550 b1bc 48d8 f13b 8487 2a3c
00000230: 9490 aebb 4b20 073d 2c73 c03c 2545 04bd
00000240: 3c45 b73c 74d9 673c 03ea e2bc 07a3 0d3d
00000250: 6486 0dbd 502c 1c3c 9646 ac3c 447c 4b3c
00000260: 16db a73c 3b64 0d3d 1150 013d ee9c cb3c
00000270: 3e52 ecbc 2a2a ee3c 5804 edbc 785c 833b
00000280: 70db bc3c 9ea4 acbc 7039 45bb e089 30bc
00000290: be4e 90bc 1eed 853c 3cc6 7dbc c884 0d3c
000002a0: a3f8 03bd 1c00 0abc ae8d afbc 30b9 603b
000002b0: acfc 98bc 5011 b13b 4978 093d 88d4 c43c
000002c0: 9300 0a3d 24e3 0cbd 0060 73bb dc08 b9bb
000002d0: 269e f23c fe4d bdbc e06e 003c 80c8 713b
000002e0: 0e58 69bc 4833 073c 2a3c febc 40dc d53a
000002f0: 789d b83b 0ac9 893c 90f1 7b3c 2882 683c
00000300: 0e45 ecbc 739a e3bc 8066 293b 901b 8e3c
00000310: 150d ddbc b418 913c c3ff 053d 6087 cdba
00000320: cb85 003d 5009 4cbb 8f63 003d 825f 09bd
00000330: f69f f93c e06e c1ba e63e 5dbc 922f 11bd
00000340: a05d 34bc 0563 8ebc 55b6 f5bc 1420 0fbd
00000350: 60f2 5ebc 902a 723c b61c fc3c 8284 f23c
00000360: 808d 9eb9 30ec d5bc e8ac d53b 00af 41bb
00000370: 3e8c 94bc 7094 9d3c dcd7 d73c 90df a2bc
00000380: 04b1 8d3c 437c f1bc 4340 8bbc 1ca8 07bc
00000390: e0d8 7a3c 1cee 38bc 4ab6 e03c 68a7 433c
000003a0: 6578 99bc 4070 10bd 7388 b8bc 7eda 8b3c
000003b0: e083 50bb f7f7 063d aaba efbc e8aa 8c3b
000003c0: f0e0 adbc 3c5d e7bc d670 bb3c 7084 d9bc
000003d0: ad04 083d c3a6 043d 4adb e2bc b0db cd3c
000003e0: 02c6 07bd d82f 7a3c d769 0dbd a577 e1bc
000003f0: c560 0f3d 0058 b6bc 2606 79bc 9894 c23b

encoder.encoder.0.bias f4 [256]
-0.00040859357 -0.035377704 -0.0023807585 0.004010562 0.012672834 -0.010676861 -0.020456383 0.0016053356
0.032027107 0.026162528 0.0010373518 0.03278489 -0.03388007 -0.0037745833 -0.011347925 -0.020109553
-0.024713641 -0.01087095 -0.019634789 0.020954687 -0.029764883 -0.015388941 0.018432483 0.0010482855
-0.022441536 -0.008042825 0.009613659 -0.031245233 -0.027546044 -0.024717025 -0.01226108 -0.022149509
-0.016551819 0.030036073 -0.027782807 0.02080074 -0.017432176 0.008364163 0.019209981 -0.0054841433
-0.031267185 -0.014157241 0.032383066 -0.02154324 -0.010604106 -0.021446068 -0.026099658 0.014080606
-0.016401649 0.0032191798 0.016826674 -0.013492925 0.0356487 -0.0059186816 -0.028711755 0.01224548
-0.020392815 -0.0036712587 0.0005736612 -0.00058830157 -0.034329854 -0.033859245 -0.011219796 -0.020946363
0.009501729 -0.024288153 -0.03484587 -0.0002337955 0.0054546297 0.026682228 -0.027487695 0.02655251
0.026749402 -0.0151695665 -0.028759375 0.009894103 0.019159697 0.019840527 -0.01645922 0.030917492
0.032190066 0.0121907815 -0.022360092 0.034599457 0.01984632 0.026756909 0.035289448 0.0260352
0.0040517747 -0.033866264 0.032904815 0.020004023 0.029140983 0.016390666 0.011928238 0.004771974
-0.032629717 0.019338712 0.026240692 -0.0017722547 0.0002367571 -0.015189385 -0.02915528 0.013567377
-0.015050778 -0.0034622513 -0.03504193 0.015924618 0.018425427 0.018519223 0.015089724 0.0204851
0.035204787 -0.027513808 -0.014403952 -0.0117297135 -0.032450806 0.008541618 0.025160246 -0.017330583
-0.01883411 -0.01745922 0.0051513687 -0.008784056 -0.023165053 0.030648556 0.027001198 0.026905816
0.032671195 -0.024144238 0.0028025508 -0.006738629 -0.014243305 -0.00487308 0.032615464 -0.012344165
-0.018533 0.017040659 0.02928288 -0.016919311 -0.023088172 -0.014164882 0.022106279 -0.026374713
0.01933391 0.035149883 0.026928928 -0.030823376 -0.004795352 -0.028911307 0.0099368915 -0.02503106
-0.008011205 0.016429517 0.034728352 0.023550365 -0.023370825 -0.020059824 -0.026095307 0.024973601
0.022988189 -0.015194843 -0.030081142 -0.03453347 0.012482483 0.03417098 -0.0024891794 0.030015957
0.026642665 -0.004411854 -0.011374844 0.004470501 -3.3445656e-05 0.024509933 0.024803255 -0.03166285
0.018133927 -0.018592546 0.020341486 0.021170255 -0.035450306 -0.020316143 -0.012186063 -0.018770922
0.0124964975 4.8972666e-05 -0.006694667 -0.034433715 -0.020275582 0.010328699 0.02494808 -0.031077433
-0.034240503 0.021970175 -0.01763117 0.023735397 0.023614507 0.018295102 0.008100387 0.0055894256
-0.027698144 -0.02287949 0.025617573 0.034635242 -0.015969826 0.016681403 -0.007684402 0.00416426
0.026375499 -0.030933777 0.009146381 -0.028783169 -0.010356337 0.014257316 -0.0003199242 0.015798349
-0.025131827 0.024951361 -0.023668941 -0.0020531192 -0.03171244 0.011702962 0.03218228 0.027622145
-0.014385687 0.022020217 -0.008050906 -0.017717332 -0.023683213 0.0074280277 -0.019551976 -0.017747186
0.031016652 0.017092988 -0.018412327 -0.013927417 -0.01951019 -0.024610465 0.032702003 0.012326531
0.0201541 -0.008744035 -0.013791673 -0.01626869 -0.015056189 0.0015035532 -0.016173972 -0.008358644
-0.03206557 -0.032232743 -0.0124753285 0.021284584 0.026494976 0.021899167 -0.0018537529 -0.035279848
00000000: 8038 d6b9 36e8 10bd 8006 1cbb 086b 833b
00000010: b8a1 4f3c 00ee 2ebc 2594 a7bc 206a d23a
00000020: db2e 033d cc52 d63c c0f7 873a 7349 063d
00000030: d4c5 0abd 005f 77bb a6ec 39bc cabc a4bc
00000040: 4374 cabc 121c 32bc 23d9 a0bc 2aa9 ab3c
00000050: 7cd5 f3bc e621 7cbc b8ff 963c a066 893a
00000060: 50d7 b7bc 0ec6 03bc 9c82 1d3c 01f6 ffbc
00000070: 3ea8 e1bc 5c7b cabc b2e2 48bc e372 b5bc
00000080: ae97 87bc 360e f63c c598 e3bc 5066 aa3c
00000090: eccd 8ebc d809 093c 405e 9d3c 54b4 b3bb
000000a0: 0512 00bd c6f3 67bc 1ba4 043d 737b b0bc
000000b0: d8bc 2dbc aaaf afbc f3ce d5bc 58b2 663c
000000c0: c05c 86bc e0f8 523b 18d8 893c 6e11 5dbc
000000d0: 5f04 123d 80f1 c1bb ea34 ebbc 44a1 483c
000000e0: d50e a7bc 8099 70bb c061 163a 4038 1aba
000000f0: 769d 0cbd feaf 0abd 3cd3 37bc b597 abbc
00000100: 24ad 1b3c f3f7 c6bc 8bba 0ebd 0027 75b9
00000110: c0bc b23b b094 da3c e02d e1bc a684 d93c
00000120: 9021 db3c c689 78bc c898 ebbc e01a 223c
00000130: ccf4 9c3c 9a88 a23c 7cd5 86bc ae46 fd3c
00000140: bbd9 033d d8bb 473c 832c b7bc 29b8 0d3d
00000150: c094 a23c 4e31 db3c ab8b 103d c647 d53c
00000160: c0c4 843b 5ab7 0abd 33c7 063d 7adf a33c
00000170: 12b9 ee3c b845 863c a86e 433c 385e 9c3b
00000180: bda6 05bd 386c 9e3c b8f6 d63c 004b e8ba
00000190: 0042 7839 e6dc 78bc 0ed7 eebc b449 5e3c
000001a0: 8a97 76bc f0e6 62bb 2088 0fbd 5874 823c
000001b0: ecf0 963c a0b5 973c e43a 773c 5ed0 a73c
000001c0: e532 103d a364 e1bc 8efe 6bbc fc2d 40bc
000001d0: 23eb 04bd 24f2 0b3c dc1c ce3c def8 8dbc
000001e0: fe49 9abc a306 8fbc d0cc a83b 00eb 0fbc
000001f0: a3c4 bdbc ae12 fb3c 9e31 dd3c 9669 dc3c
00000200: 3bd2 053d 23ca c5bc 00ab 373b b8cf dcbb
00000210: c05c 69bc 5cae 9fbb cb97 053d 2e3f 4abc
00000220: 85d2 97bc da98 8b3c a6e2 ef3c 5e9a 8abc
00000230: 6823 bdbc d213 68bc 3a18 b53c c80f d8bc
00000240: 2662 9e3c 53f9 0f3d 0e9a dc3c 4e81 fcbc
00000250: 5422 9dbb 68d7 ecbc 58ce 223c f00d cdbc
00000260: 6e41 03bc 3297 863c 513f 0e3d b2ec c03c
00000270: 2c74 bfbc 8054 a4bc d3c5 d5bc 7095 cc3c
00000280: ba51 bc3c caf3 78bc ba6c f6bc f872 0dbd
00000290: 5483 4c3c dff6 0b3d 8021 23bb 06e4 f53c
000002a0: b841 da3c 5091 90bb 8e5d 3abc 487d 923b
000002b0: 0048 0cb8 0ec9 c83c 3230 cb3c e8b0 01bd
000002c0: 9a8d 943c 654f 98bc 30a3 a63c 3e6d ad3c
000002d0: 5734 11bd 0a6e a6bc 0ea8 47bc 7ac5 99bc
000002e0: 1cbe 4c3c 0068 4d38 f05e dbbb 5e0a 0dbd
000002f0: fa18 a6bc b439 293c ea5f cc3c 1a96 febc
00000300: c53f 0cbd ccfa b33c 3e6f 90bc bc70 c23c
00000310: 3673 c13c 9cdf 953c 7cb7 043c 8027 b73b
00000320: 38e7 e2bc c56d bbbc f2db d13c afdd 0d3d
00000330: 27d3 82bc 70a7 883c 70cd fbbb 5874 883b
00000340: 6e11 d83c d568 fdbc b4da 153c aeca ebbc
00000350: a0ad 29bc 8497 693c 80bb a7b9 8a6b 813c
00000360: 43e1 cdbc cc66 cc3c 5ee5 c1bc a08d 06bb
00000370: e7e4 01bd c8bd 3f3c 91d1 033d d647 e23c
00000380: f2b1 6bbc be63 b43c f2e7 03bc f023 91bc
00000390: 4c03 c2bc d066 f33b 772b a0bc 8c62 91bc
000003a0: a216 fe3c 9806 8c3c 73d5 96bc d22f 64bc
000003b0: d5d3 9fbc e39b c9bc 89f2 053d 38f5 493c
000003c0: 361a a53c 2443 0fbc 78f6 61bc ea45 85bc
000003d0: 3cae 76bc e012 c53a 477f 84bc b2f2 08bc
000003e0: 3057 03bd 7b06 04bd 5265 4cbc 025d ae3c
000003f0: fe0b d93c e265 b33c a0f9 f2ba 9a81 10bd

encoder.encoder.2.weight f4 [128, 256]
0.015025437 0.017709121 -0.033074327 0.061374433 -0.019630305 0.03147664 0.025520109 0.034592375
-0.045465186 0.017657056 0.006422326 0.024452947 -0.018261783 -0.018594086 -0.022516355 -0.05068499
-0.046161525 -0.009891197 -0.060024552 0.034682907 0.0040511265 0.059249014 0.046504706 -0.0005079657
-0.058134228 -0.028555982 -0.053716466 0.059384264 0.053410694 -0.053029083 0.02738376 0.0040954202
-0.0020495728 0.005965084 -0.023579776 0.03319621 -0.012038626 0.015710466 0.010368139 0.009028502
0.035261765 -0.020428918 0.015084326 -0.045185782 -0.033411033 -0.030095145 0.060720325 -0.0017207116
-0.04242558 0.015193693 0.015281051 -0.051330447 0.010273188 -0.04152544 0.029841885 0.04185296
-0.011085562 0.046997704 -0.014473423 0.047326267 0.04933621 -0.019975014 -0.01628071 0.05307003
-0.057532683 -0.030386373 0.04606428 -0.0161848 -0.049163304 -0.03830328 -0.008925058 0.01564698
-0.055328637 -0.012405269 0.0005271882 0.054183282 -0.021501109 -0.016267918 -0.031757265 0.044519864
-0.015416294 0.023865812 -0.015483052 0.0012883693 0.0064207613 -0.054338396 -0.0015880987 -0.028553195
-0.061328575 0.031742193 0.04567965 -0.05571053 -0.053093612 0.019453965 0.027621605 -0.021029316
0.013051227 0.026360907 0.043040387 -0.0132679865 0.0064366832 0.024770118 0.05432179 -0.013532557
0.033168077 0.05892761 -0.05817475 -0.017447643 0.011432283 0.04469195 -0.03952094 0.04982452
-0.054364473 0.020747125 0.03171482 0.031508148 -0.012075178 -0.038513355 0.016517773 -0.060438223
-0.062124513 0.053611375 -0.019840918 -0.017914057 -0.05569298 -0.04708332 -0.054190993 -0.034337908
-0.048578992 -0.037926927 -0.030657165 -0.042885646 -0.016184062 -0.016527288 0.05517008 -0.055066086
-0.03464312 -0.05446259 -0.03749086 -0.05831498 -0.061869428 -0.009675436 -0.0035080463 -0.00023446977
-0.016169824 0.060861267 -0.030739717 -0.01927641 -0.03830476 -0.0055737942 -0.04480411 -0.050898053
-0.0006271601 -0.052458636 0.005287051 0.05044768 0.056712724 -0.06157928 0.027184613 0.04191424
-0.018294327 0.04996472 0.04739593 -0.03810291 -0.056912094 -0.04217089 0.054922245 0.005932778
0.034958288 -0.039178535 -0.05625377 0.026704676 -0.00045026094 -0.06068594 0.026418991 0.020991914
-0.0055660307 0.03668292 -0.027304493 0.025742665 -0.014131159 0.009527013 0.030875482 -0.0529958
-0.011535794 0.01552175 -0.05050081 0.028379709 0.016060024 -0.044398688 0.045272812 -0.035198793
-0.016326562 0.011480056 0.05744958 -0.04895456 -0.047093034 -0.045790568 -0.04294301 -0.0018111393
0.04550276 0.060429916 -0.041301847 0.018389419 0.038941726 0.04345432 0.04796288 0.0036095679
0.039967246 0.014001377 -0.0004299432 -0.043846413 -0.035020456 0.045990407 0.030495115 0.016615339
-0.012434177 0.044996306 0.050503135 -0.015683465 0.06126806 -0.017978653 -0.004873432 0.014785789
-0.05591947 -0.0074121654 -0.03651339 -0.006637737 0.013765603 0.025595807 0.056545943 0.036333643
-0.060749926 -0.033757687 -0.046667583 0.059741475 -0.05938077 -0.051796846 0.039670452 0.05527816
-0.02584429 0.00048850477 0.020991921 0.0048422962 0.025373593 0.048171006 -0.06202265 -0.017913938
0.021454819 -0.02803249 0.03422884 0.050966755 -0.004857339 0.014291935 0.03835869 -0.04337834
00000000: 402d 763c b812 913c f278 07bd c263 7b3d
00000010: bccf a0bc a6ed 003d 8c0f d13c bcb0 0d3d
00000020: b439 3abd 88a5 903c 6072 d23b 8c51 c83c
00000030: bc99 95bc a052 98bc 3874 b8bc 109b 4fbd
00000040: de13 3dbd b00e 22bc 4edc 75bd aa0f 0e3d
00000050: 50bf 843b 18af 723d b87b 3e3d 0029 05ba
00000060: 281e 6ebd 3cee e9bc cc05 5cbd ea3c 733d
00000070: 2cc5 5a3d 0635 59bd e853 e03c e032 863b
00000080: 2052 06bb c076 c33b 602a c1bc c0f8 073d
00000090: a83d 45bc 3cb3 803c 20df 293c 48ec 133c
000000a0: a46e 103d 8c5a a7bc 4024 773c ba14 39bd
000000b0: 02da 08bd 188a f6bc e0b5 783d 8089 e1ba
000000c0: 72c6 2dbd f8ee 783c 605d 7a3c e03f 52bd
000000d0: e050 283c 9416 2abd f876 f43c 026e 2b3d
000000e0: 38a0 35bc aa80 403d f021 6dbc 30d9 413d
000000f0: c414 4a3d a4a2 a3bc 205f 85bc f65f 593d
00000100: 64a7 6bbd d8ec f8bc e6ad 3c3d fc95 84bc
00000110: 765f 49bd e6e3 1cbd 683a 12bc 182e 803c
00000120: 48a0 62bd 783f 4bbc 0033 0a3a 4aef 5d3d
00000130: 1823 b0bc 4c44 85bc e813 02bd 765a 363d
00000140: a094 7cbc 3c82 c33c a0ac 7dbc 80de a83a
00000150: 4065 d23b f091 5ebd c027 d0ba 64e8 e9bc
00000160: ac33 7bbd 1a04 023d 961a 3b3d ba30 64bd
00000170: b078 59bd ec5d 9f3c b446 e23c ac45 acbc
00000180: d0d4 553c d4f2 d73c 1e4b 303d f861 59bc
00000190: d0ea d23b b4ea ca3c 8680 5e3d a8b7 5dbc
000001a0: 40db 073d 145e 713d a648 6ebd 5cee 8ebc
000001b0: 784e 3b3c e80e 373d b6e0 21bd cc14 4c3d
000001c0: 48ad 5ebd e0f5 a93c 66e7 013d b00e 013d
000001d0: f8d6 45bc 2ec0 1dbd 4850 873c 128e 77bd
000001e0: 4676 7ebd 9a97 5b3d 6c89 a2bc 80c0 92bc
000001f0: 521e 64bd 70da 40bd 60f7 5dbd e8a5 0cbd
00000200: c4fa 46bd 4459 1bbd bc24 fbbc dca8 2fbd
00000210: 7094 84bc 3c64 87bc 06fa 613d fa8c 61bd
00000220: f2e5 0dbd 2a14 5fbd 0490 19bd b0db 6ebd
00000230: cc6a 7dbd b885 1ebc 40e7 65bb 00dc 75b9
00000240: 9476 84bc aa49 793d dcd1 fbbc 90e9 9dbc
00000250: 74e5 1cbd 60a4 b6bb 8484 37bd 7a7a 50bd
00000260: 0068 24ba dede 56bd 003f ad3b 3aa2 4e3d
00000270: 9a4b 683d 8e3a 7cbd 44b2 de3c 44ae 2b3d
00000280: fcdd 95bc cea7 4c3d 3c22 423d cc11 1cbd
00000290: a81c 69bd 62bb 2cbd 26f6 603d c067 c23b
000002a0: 6c30 0f3d ac79 20bd 5a6a 66bd c4c3 da3c
000002b0: 0011 ecb9 d291 78bd a46c d83c 3cf7 ab3c
000002c0: 4063 b6bb d440 163d acad dfbc 48e2 d23c
000002d0: 6086 67bc 3017 1c3c 94ee fc3c 2012 59bd
000002e0: a000 3dbc f04e 7e3c f0d9 4ebd 907c e83c
000002f0: 5090 833c 66db 35bd fc6f 393d 9c2c 10bd
00000300: 48bf 85bc d816 3c3c 4050 6b3d 9484 48bd
00000310: a0e4 40bd e48e 3bbd 02e5 2fbd c063 edba
00000320: 1a61 3a3d 5c85 773d 202c 29bd 68a5 963c
00000330: 5c81 1f3d 28fd 313d ba74 443d 808e 6c3b
00000340: b2b4 233d 0866 653c 006a e1b9 4c98 33bd
00000350: 9c71 0fbd 7060 3c3d e4d0 f93c e41c 883c
00000360: b8b8 4bbc 0c4e 383d 60dc 4e3d 9c7a 80bc
00000370: 38f4 7a3d f847 93bc 50b1 9fbb 1840 723c
00000380: d00b 65bd c0e1 f2bb 108f 15bd 6081 d9bb
00000390: 2089 613c 4cae d13c b89c 673d 96d2 143d
000003a0: ead4 78bd 8045 0abd 8226 3fbd 7ab3 743d
000003b0: 4039 73bd ee28 54bd 7c7d 223d 5a6b 623d
000003c0: 68b7 d3bc 000f 003a 40f7 ab3c 20ac 9e3b
000003d0: 48dc cf3c f64e 453d 760b 7ebd 40c0 92bc
000003e0: 04c2 af3c 64a4 e5bc 8a33 0c3d 84c2 503d
000003f0: 502a 9fbb b828 6a3c 001e 1d3d 7cad 31bd

encoder.encoder.2.bias f4 [128]
-0.06173724 0.005472131 0.0456587 0.057903245 -0.043385275 0.06205912 -0.009165265 0.01770734
0.005276829 -0.023180068 -0.034543082 0.022661582 0.04226601 -0.027784243 -0.005052328 -0.0064177215
0.05130501 0.047920488 -0.025605492 -0.03984324 0.014514692 -0.052124545 0.052718543 -0.004213333
-0.0046973377 0.05447471 -0.05906009 -0.033432774 0.02401074 0.052985027 -0.024431713 0.038357884
0.022666976 -0.03837031 0.030922659 -0.051855534 -0.034206368 -0.043191552 -0.053000733 0.055818364
-0.046669073 -0.03143221 0.04646028 -0.056720063 -0.003165111 -0.006024003 0.013653576 -0.01771997
-0.00782612 0.03763669 0.049821287 -0.040740997 -0.01774437 0.024062261 -0.022907265 -0.009747744
0.040071182 0.031799473 -0.0159543 0.020949095 0.026286691 0.049516834 -0.03626409 0.02719143
0.009788878 0.04981648 0.030956894 -0.030104883 0.01687716 0.0004271865 0.037860118 0.047971867
-0.050599486 -0.020785302 0.008021824 -0.026089251 0.002126433 0.035657145 -0.051356293 -0.046812303
-0.05001259 -0.047702312 0.02730374 -0.0041775703 -0.03427069 0.050687872 -0.014698982 0.053371117
-0.0006380975 -0.0060790405 -0.02488526 0.02256994 0.03865523 -0.014346749 0.05136396 0.014244929
-0.055971466 0.03875538 -0.04566765 0.012098394 0.017224632 0.03880635 -0.026344478 -0.0044632927
0.061653003 -0.046962827 -0.015591674 -0.0037227198 0.011362307 0.04681582 0.022648945 -0.015963562
-0.056024626 0.028086558 -0.03937144 -0.03295528 -0.01677125 0.061810546 -0.0052662343 0.041899644
-0.025939807 0.036416374 -0.027368553 0.030283004 0.030574419 -0.045132242 0.046083473 0.012011208
00000000: 30e0 7cbd 904f b33b 9e04 3b3d f42b 6d3d
00000010: c2b4 31bd b431 7e3d e829 16bc fc0e 913c
00000020: 40e9 ac3b 20e4 bdbc 0c7d 0dbd c8a4 b93c
00000030: 201f 2d3d c89b e3bc 008e a5bb c04b d2bb
00000040: 3425 523d 4648 443d 9cc2 d1bc aa32 23bd
00000050: 08cf 6d3c 8c80 55bd 66ef 573d 0010 8abb
00000060: 20ec 99bb e020 5f3d fee8 71bd cef0 08bd
00000070: 2cb2 c43c d406 593d 0425 c8bc 281d 1d3d
00000080: 18b0 b93c 302a 1dbd 8451 fd3c 7866 54bd
00000090: fa1b 0cbd a0e9 30bd 4c17 59bd cca1 643d
000000a0: 1228 3fbd 10bf 00bd 224d 3e3d 4c53 68bd
000000b0: c06d 4fbb 0065 c5bb 40b3 5f3c 7829 91bc
000000c0: 2039 00bc ee28 1a3d 6811 4c3d 08e0 26bd
000000d0: a45c 91bc 381e c53c 04a8 bbbc 00b5 1fbc
000000e0: ae21 243d 2a40 023d 98b2 82bc 709d ab3c
000000f0: 3057 d73c 2ad2 4a3d a889 14bd 90c0 de3c
00000100: 8861 203c 5e0c 4c3d 5099 fd3c 849e f6bc
00000110: f841 8a3c 00f8 df39 3613 1b3d 267e 443d
00000120: 6841 4fbd f045 aabc f86d 033c 20b9 d5bc
00000130: a05b 0b3b 3a0d 123d fa5a 52bd 42be 3fbd
00000140: 00da 4cbd 8063 43bd 18ac df3c 00e4 88bb
00000150: 6c5f 0cbd 169e 4f3d 00d4 70bc ac9b 5a3d
00000160: 0046 27ba b032 c7bb 2cdc cbbc 98e4 b83c
00000170: f254 1e3d a00e 6bbc 0463 523d 9063 693c
00000180: 5642 65bd f6bd 1e3d 000e 3bbd 5838 463c
00000190: ac1a 8d3c 68f3 1e3d 60d0 d7bc d040 92bb
000001a0: dc87 7c3d 185c 40bd 3874 7fbc e0f8 73bb
000001b0: f828 3a3c f2c1 3f3d 488a b93c 04c6 82bc
000001c0: 147a 65bd c815 e63c f243 21bd 1efc 06bd
000001d0: dc63 89bc 0e2d 7d3d 6090 acbb f69e 2b3d
000001e0: b87f d4bc 5629 153d 0434 e0bc 1014 f83c
000001f0: 3477 fa3c 96dc 38bd 06c2 3c3d a8ca 443c

encoder.encoder.4.weight f4 [64, 128]
0.076873995 -0.041125946 -0.063970886 0.015820347 0.023047812 0.0851709 0.06356593 -0.082259186
0.015433975 -0.021198444 0.02833008 0.014998756 0.03740608 -0.08728869 0.013596803 -0.023524381
-0.04181115 -0.07002459 -0.022398256 0.048110656 -0.041283008 0.07430615 -0.03803513 0.0664807
-0.08639238 -0.0438223 -0.014871813 0.08251641 0.02460435 0.058507048 0.014449932 0.0697834
0.040852837 0.06735658 -0.025023669 0.056474753 -0.079879075 0.03558664 0.016383111 0.037290104
0.01729539 -0.031084407 0.05743911 0.08023132 -0.05420937 -0.0827723 -0.05891456 -0.012639947
0.022091463 -0.044591144 0.0725688 0.07551705 0.010126762 -0.0095361695 0.04463204 0.052437194
0.00020731986 -0.03302533 -0.0634532 -0.06126526 -0.0073613897 -0.079156406 0.064442165 0.08537609
-0.004877463 0.077370144 -0.08818444 0.02589748 0.040012352 0.076742955 0.08436663 0.0070599243
0.058626406 -0.0022286326 -0.058447048 -0.04327691 0.0010022819 -0.078126736 -0.037761122 -0.086111754
-0.07613157 -0.029751513 0.064308606 0.033741742 0.07829573 0.051315255 0.027743012 -0.0334389
-0.012880594 -0.033405192 0.024695352 -0.009823263 0.063110314 -0.07149492 -0.010811754 -0.042033747
0.004916355 0.00329303 -0.08186753 -0.054865334 0.019970916 0.056580864 0.010949604 -0.08221443
-0.013937496 0.028872728 0.06680209 -0.016412929 0.034684382 0.04307931 -0.00802736 -0.015093282
-0.046408106 0.027781568 0.07989176 0.0029636994 -0.03344719 -0.0040758774 -0.06556948 0.07756468
-0.060461212 -0.014414668 -0.030038048 0.0167372 0.052360542 0.035264187 0.05834607 -0.060611024
-0.0021825954 0.064782046 0.03751815 -0.07114999 -0.06980285 0.08502073 0.029293537 0.056501426
-0.024689421 -0.010273524 -0.017729416 0.06956083 0.06414174 4.518032e-05 0.062577285 0.029489234
-0.058421474 -0.035546094 -0.019205801 -0.028914992 0.051940598 -0.07231714 0.0491234 0.026922219
0.03420324 0.033717424 0.01166074 0.064931355 0.059526928 -0.0020086244 0.0379171 -0.026759878
0.03191589 -0.084190585 -0.071865305 0.015856758 -0.08148125 -0.081713475 -0.06254168 0.05688315
0.06142784 -0.047554772 0.013890028 0.07993581 0.08754849 0.03158699 -0.058056314 -0.08306211
0.0061187744 -0.08646859 -0.04241094 0.034385145 -0.00804089 -0.01668626 0.07601217 0.044181652
0.021680728 0.005805023 0.088029735 0.022632793 0.0043463185 0.056612678 -0.06250655 -0.01383096
0.027926005 0.009423085 0.013288006 -0.03600423 0.074458264 0.03151211 0.05291464 0.022264265
0.06230057 -0.016873777 -0.0534692 0.073405765 -0.06317353 0.013789102 -0.049941223 -0.041467715
0.027694106 0.0063600466 0.061394222 -0.023306288 -0.049024623 -0.027202178 -0.0005595535 -0.022877857
-0.051670097 -0.042799197 0.032659322 -0.029801782 0.003261052 -0.050022006 -0.068993 -0.05851599
-0.044050504 0.068474956 0.05900184 0.06852112 -0.041541863 0.050526522 0.022502363 0.079278
0.08479024 0.075565554 -0.0009244606 -0.016650744 0.00024434924 -0.06825585 0.06738392 -0.040927857
-0.0118985325 -0.060037702 -0.0065177754 0.018874317 -0.01675751 -0.064932734 0.025300257 0.038817845
-0.033342138 0.019420743 -0.01895111 0.010820791 0.061183013 -0.083651125 0.035325117 0.023819588
00000000: 1d70 9d3d ae73 28bd 2b03 83bd ac99 813c
00000010: c4ce bc3c 156e ae3d db2e 823d 8177 a8bd
00000020: c8de 7c3c 5ca8 adbc 7c14 e83c 58bd 753c
00000030: 1e37 193d 6ac4 b2bd 20c5 5e3c 34b6 c0bc
00000040: 2b42 2bbd 0d69 8fbd 8c7c b7bc ae0f 453d
00000050: 5f18 29bd d32d 983d b9ca 1bbd 0927 883d
00000060: 7dee b0bd 037f 33bd e8a8 73bc 5dfe a83d
00000070: 108f c93c 16a5 6f3d 68bf 6c3c 99ea 8e3d
00000080: 4e55 273d 3ff2 893d 70fe ccbc 1252 673d
00000090: a497 a3bd 4cc3 113d e035 863c 82bd 183d
000000a0: 10af 8d3c baa4 febc 4645 6b3d 5150 a43d
000000b0: a50a 5ebd 8684 a9bd 6550 71bd c817 4fbc
000000c0: 28f9 b43c 34a5 36bd f39e 943d afa8 9a3d
000000d0: b8ea 253c 983d 1cbc 16d0 363d 62c8 563d
000000e0: 0064 5939 9245 07bd c0f3 81bd 48f1 7abd
000000f0: d037 f1bb c11c a2bd 41fa 833d a9d9 ae3d
00000100: 20d3 9fbb 3d74 9e3d 0b9a b4bd f426 d43c
00000110: fee3 233d 692b 9d3d 69c8 ac3d f056 e73b
00000120: 3e22 703d 400e 12bb 2c66 6fbd 2143 31bd
00000130: 005f 833a e900 a0bd 68ab 1abd 5c5b b0bd
00000140: deea 9bbd 72b9 f3bc 3bb4 833d c834 0a3d
00000150: 8359 a03d f22f 523d 5045 e33c 3af7 08bd
00000160: 2009 53bc e2d3 08bd e84d ca3c c0f1 20bc
00000170: fb3f 813d ee6b 92bd c823 31bc 942b 2cbd
00000180: 6019 a13b e0cf 573b 2aaa a7bd 79ba 60bd
00000190: 0c9a a33c 56c1 673d f865 333c 0a60 a8bd
000001a0: 185a 64bc 8086 ec3c 89cf 883d 6874 86bc
000001b0: 3611 0e3d ee73 303d 3085 03bc d049 77bc
000001c0: 6d16 3ebd 2c96 e33c 4b9e a33d a03a 423b
000001d0: ecff 08bd f08e 85bb 4b49 86bd 3bda 9e3d
000001e0: 2da6 77bd 802b 6cbc 5a12 f6bc 741c 893c
000001f0: 0278 563d 2e71 103d 4afc 6e3d 4443 78bd
00000200: e009 0fbb 73ac 843d a2ac 193d 16b7 91bd
00000210: ccf4 8ebd 591f ae3d 00f9 ef3c 0a6e 673d
00000220: 7841 cabc 4852 28bc 483d 91bc e975 8e3d
00000230: bf5c 833d 0080 3d38 8528 803d 6893 f13c
00000240: 5b4b 6fbd c898 11bd 7c55 9dbc 22df ecbc
00000250: aabf 543d 021b 94bd 9e35 493d fc8b dc3c
00000260: b218 0c3d 481b 0a3d b00c 3f3c bbfa 843d
00000270: 82d2 733d 20a3 03bb f64e 1b3d 8837 dbbc
00000280: 3cba 023d 1d6c acbd 1e2e 93bd 08e6 813c
00000290: a4df a6bd 6559 a7bd da15 80bd 4efe 683d
000002a0: c29b 7b3d cbc8 42bd 0093 633c 63b5 a33d
000002b0: 9f4c b33d 5c61 013d 75cc 6dbd 781c aabd
000002c0: 0080 c83b 7216 b1bd 18b7 2dbd 70d7 0c3d
000002d0: f0bd 03bc a0b1 88bc 45ac 9b3d d2f7 343d
000002e0: c89b b13c 1038 be3b ef48 b43d 6868 b93c
000002f0: 906b 8e3b b2e2 673d 6f03 80bd 409b 62bc
00000300: 14c5 e43c 4863 1a3c f0b5 593c 2c79 13bd
00000310: 937d 983d d812 013d 06bd 583d 8c63 b63c
00000320: e22e 7f3d e03a 8abc 8502 5bbd c355 963d
00000330: 2061 81bd b0eb 613c 2b8f 4cbd 0dda 29bd
00000340: c0de e23c f067 d03b 8278 7b3d d4ec bebc
00000350: 0bce 48bd 1ad7 debc 00af 12ba 586a bbbc
00000360: 06a4 53bd 364e 2fbd c8c5 053d de22 f4bc
00000370: 60b7 553b e0e3 4cbd 344c 8dbd 76ae 6fbd
00000380: 4d6e 34bd 993c 8c3d eaab 713d cd54 8c3d
00000390: cd27 2abd e6f4 4e3d e056 b83c 815c a23d
000003a0: 81a6 ad3d 1dc2 9a3d 8057 72ba 2467 88bc
000003b0: 001c 8039 b9c9 8bbd 9500 8a3d f8a3 27bd
000003c0: 10f2 42bc 18ea 75bd 1093 d5bb 509e 9a3c
000003d0: 0c47 89bc 74fb 84bd 7c42 cf3c 76ff 1e3d
000003e0: c491 08bd 4018 9f3c 5c3f 9bbc b049 313c
000003f0: 0a9b 7a3d 4851 abbd 12b1 103d 4c21 c33c

encoder.encoder.4.bias f4 [64]
0.032264054 0.022027902 -0.028604042 -0.064312145 -0.018619753 -0.03962871 -0.042922106 0.0771933
-0.041592587 0.06570918 0.010448955 -0.0025587678 0.03702555 -0.07387407 -0.029973637 0.024558708
-0.068977185 0.018672384 -0.0032477528 0.041385643 0.048471965 0.06409376 0.0013143271 -0.0017986447
-0.07414029 -0.02077479 0.05139684 0.018835329 0.06464655 0.027917743 -0.03349788 0.00061600655
-0.020025581 -0.022279084 0.010772251 0.041295372 0.082539134 0.06464406 0.05937027 0.07978689
0.07478655 0.05220736 -0.012999266 -0.04676255 0.04664322 -0.054157697 -0.048516616 -0.08436665
-0.07834138 -0.007931918 0.040154092 -0.070950046 0.06162753 0.08099035 0.07840007 0.010300592
0.0595297 -0.022860922 -0.085889585 0.011951834 -0.013491742 -0.054884754 0.08444556 -0.052453965
00000000: 5027 043d dc73 b43c 0653 eabc 16b6 83bd
00000010: 7488 98bc b751 22bd 17cf 2fbd 8517 9e3d
00000020: fd5c 2abd 8992 863d 1832 2b3c 00b1 27bb
00000030: 1aa8 173d 4a4b 97bd 468b f5bc 582f c93c
00000040: e943 8dbd d4f6 983c 40d8 54bb fe83 293d
00000050: 8a8a 463d 9743 833d 8045 ac3a 80c0 ebba
00000060: ddd6 97bd e42f aabc 7e85 523d 8c4c 9a3c
00000070: 6965 843d c0b3 e43c 1335 09bd 807b 213a
00000080: b00c a4bc a082 b6bc 187e 303c 5625 293d
00000090: 470a a93d 1b64 843d 3e2e 733d 4f67 a33d
000000a0: b129 993d 62d7 553d e0fa 54bc 168a 3fbd
000000b0: f60c 3f3d 76d4 5dbd 5cb9 46bd 6cc8 acbd
000000c0: 7271 a0bd e0f4 01bc 9e78 243d 424e 91bd
000000d0: 266d 7c3d 45de a53d 3790 a03d d0c3 283c
000000e0: 6ad5 733d d446 bbbc e1e6 afbd a0d1 433c
000000f0: 780c 5dbc d6ce 60bd cbf1 ac3d f8d9 56bd

model.0.weight f4 [10, 64]
2.912e-42 1.8617378e-31 -2.755e-42 -1.8214536e-18 5.118e-42 6.3277286e-18 -1.3125e-41 -3.3162218e-24
5.6e-42 -1.603e-42 -2.8317423e-20 -1.753019e-20 -5.845e-42 2.068e-42 -2.029e-42 7.887794e-20
4.963e-42 -4.749e-42 1.756519e-30 -9.669246e-24 7.97e-43 7.004e-42 1.864e-42 -6.333326e-20
-1.033e-42 1.3448634e-18 1.1e-43 9.3942614e-33 -8.885953e-24 7.367e-42 -1.0805848e-18 6.36e-42
7.453775e-34 1.457359e-21 1.2995179e-37 -5.612e-42 -4.33e-43 1.609e-42 6.861e-42 -1.7080624e-18
1.55e-42 7.5e-43 -5.887e-42 -6.241e-42 -6.019e-42 -8.66e-43 -2.27e-42 2.123e-42
2.1988764e-18 7.053e-42 -3.835e-42 -4.734e-42 6.6924796e-34 -3.477e-42 -3.2914993e-22 3.782e-42
-4.7731977e-18 -8.62e-43 -7.31e-43 -5.836e-42 1.003e-42 1.087e-42 -2.473e-42 -1.7631218e-37
-8.533e-42 2.0552779e-21 -4.1434982e-18 -4.682e-42 -3.75e-42 -5.4664518e-21 -2.726568e-33 -1.2084353e-29
8.151e-42 6.841e-42 -4.502e-42 -4.407e-42 3.066e-42 -1.3e-44 2.1676423e-24 6.05e-42
2.36e-42 1.2617786e-18 -1.5e-43 -5.133e-42 5.41e-43 1.1963879e-26 -3.373e-42 9.47e-42
-1.02660304e-29 1.2178816e-22 5.469e-42 -8.72e-43 -1.7834576e-19 -4.7080584e-33 -5.158e-42 3.754e-42
9.117324e-28 7.025e-42 -3.009e-42 8.142e-42 7.1493162e-34 -3.4309608e-22 1.1956043e-19 2.419e-42
2.1268268e-34 -3.129e-42 5.0857323e-23 -4.898e-42 -7.92e-43 -2.002e-42 9.106e-42 -7.21e-42
-8.97e-43 5.426e-42 -6.869e-42 4.292e-42 7.842e-42 1.2368729e-20 7.865e-42 -2.398e-42
6.129e-42 -1.228742e-22 -3.081e-42 -4.228e-42 -5.511e-42 2.962e-42 6.236e-42 -7.52e-43
1.2357241e-17 -4.35692e-40 -7.433387e-18 -3.762e-42 3.0836e-41 9.404e-42 5.265e-42 -5.993878e-20
7.578e-42 2.5878023e-36 6.963e-42 1.4682512e-18 5.8326414e-38 -4.1662707e-24 1.74e-43 1.81e-42
4.466e-42 2.4967971e-23 -4.805e-42 -2.01e-42 5.160561e-23 8.717508e-20 -9.68e-43 -2.9599438e-18
1.78e-43 6.707e-42 -4.37e-43 4.534085e-39 -4.771e-42 4.128e-42 -1.415e-42 6.885e-42
5.106846e-19 -1.484e-42 -5.5894397e-28 6.6300053e-34 6.86e-42 -5.866e-42 -1.6089385e-26 1.5498261e-19
-2.3261757e-20 4.5926e-40 -3.255e-42 -1.902e-42 6.8959256e-26 5e-43 -3.2799647e-23 -4.934e-42
1.4534564e-24 1.169e-42 -6.5589026e-35 3.45e-42 8.441e-42 -8.298436e-27 8.03e-43 -9.717e-42
-1.67132e-19 -1.0239e-41 -1.949e-41 -2.755e-42 -5.1e-42 -2.332e-42 -5.36e-42 -6.1054054e-23
-8.01e-42 -1.8795515e-33 5.991682e-21 6.81e-42 5.98e-42 -3.73e-42 4.41e-42 5.667e-42
6.878e-42 -6.778937e-29 -1.6300729e-19 9.23e-42 2.034307e-31 -4.872e-42 6.14e-43 3.5485218e-22
9.3311975e-21 -6.323e-42 9.055e-42 -4.543493e-21 -3.135e-42 -5.301086e-28 -2.9053e-41 -4.7071165e-27
3.997e-42 6.976e-42 -4.46e-42 3.52e-43 1.418e-42 2.284e-42 -3.388e-42 -9.983e-42
2.6611937e-17 -1.782e-41 8.007e-42 -2.760083e-19 4.04e-43 4.305e-42 1.753e-42 7.107e-42
7.124e-42 4.058e-42 8.032e-42 4.813e-42 2.553e-42 2.3547345e-19 -3.662613e-25 5.159516e-29
2.347e-42 2.653e-42 -4.792e-42 1.819e-42 -4.738e-42 -2.328e-42 -3.5060164e-25 -3.622e-42
-8.7577515e-20 4.764e-42 4.9147822e-26 -2.357e-42 -2.954e-42 9.079e-42 5.514e-42 3.9125609e-28
00000000: 1e08 0000 daaa 710c ae07 0080 4966 06a2
00000010: 440e 0000 b573 e922 9624 0080 454a 8098
00000020: 9c0f 0000 7804 0080 aab9 059f 6691 a59e
00000030: 4b10 0080 c405 0000 a805 0080 ca3e ba1f
00000040: d60d 0000 3d0d 0080 7981 0e0e c907 3b99
00000050: 3902 0000 8613 0000 3205 0000 9b8a 959f
00000060: e102 0080 8177 c621 4e00 0000 761c 430a
00000070: 1ce1 2b99 8914 0000 5777 9fa1 bb11 0000
00000080: b4b1 7708 d83a dc1c 97e1 3002 a50f 0080
00000090: 3501 0080 7c04 0000 2013 0000 c610 fca1
000000a0: 5204 0000 1702 0000 6910 0080 6611 0080
000000b0: c710 0080 6a02 0080 5406 0080 eb05 0000
000000c0: 9a3f 2222 a913 0000 b10a 0080 320d 0080
000000d0: 5265 5e08 b109 0080 7cf5 c69b 8b0a 0000
000000e0: 9419 b0a2 6702 0080 0a02 0080 4510 0080
000000f0: cc02 0000 0803 0000 e506 0080 d4fb 6f82
00000100: c917 0080 db4a 1b1d 3cde 98a2 0d0d 0080
00000110: 740a 0080 4784 ce9d b083 6289 8c19 758f
00000120: b916 0000 1213 0000 8d0c 0080 490c 0080
00000130: 8c08 0000 0900 0080 94b6 2718 dd10 0000
00000140: 9406 0000 a634 ba21 6b00 0080 4f0e 0080
00000150: 8201 0000 13f8 6c14 6709 0080 661a 0000
00000160: 4738 508f 9c3b 131b 3f0f 0000 6e02 0080
00000170: b38d 52a0 aa90 c389 610e 0080 770a 0000
00000180: 4378 9012 9513 0000 6308 0080 b216 0000
00000190: a893 6d08 8c63 cf9b ec26 0d20 be06 0000
000001a0: 155a 8d07 b908 0080 51ee 751a a70d 0080
000001b0: 3502 0080 9505 0080 6219 0000 1914 0080
000001c0: 8002 0080 200f 0000 2613 0080 f70b 0000
000001d0: dc15 0000 81a3 691e ed15 0000 af06 0080
000001e0: 1611 0000 b98b 149b 9708 0080 c90b 0080
000001f0: 5d0f 0080 4208 0000 6211 0000 1902 0080
00000200: 6cf3 6323 88be 0480 2d1f 09a3 7d0a 0080
00000210: f555 0000 371a 0000 ad0e 0000 c586 8d9f
00000220: 2015 0000 5825 5c04 6913 0000 f6ac d821
00000230: 94c7 9e01 bf2c a198 7c00 0000 0c05 0000
00000240: 730c 0000 b479 f119 650d 0080 9a05 0080
00000250: a78c 791a 1ad6 cd1f b302 0080 c267 5aa2
00000260: 7f00 0000 b212 0000 3801 0080 2f5f 3100
00000270: 4d0d 0080 820b 0000 f203 0080 3113 0000
00000280: 3dba 1621 2304 0080 ec22 3192 d951 5c08
00000290: 1f13 0000 5a10 0080 7057 9f94 9ff8 3620
000002a0: 7ab3 db9e 3b00 0500 1309 0080 4d05 0080
000002b0: 1fbc aa15 6501 0000 ff9b 1e9a c10d 0080
000002c0: 57e9 e017 4203 0000 945d ae86 9e09 0000
000002d0: 8817 0000 125e 2494 3d02 0000 161b 0080
000002e0: 8c50 45a0 8b1c 0080 5536 0080 ae07 0080
000002f0: 370e 0080 8006 0080 f10e 0080 a19e 939a
00000300: 5416 0080 a425 1c89 fe5b e21d fc12 0000
00000310: ab10 0000 660a 0080 4b0c 0000 cc0f 0000
00000320: 2c13 0000 d1dd ab90 ee71 40a0 bb19 0000
00000330: b908 840c 950d 0080 b601 0000 b77e d61b
00000340: e742 301e a011 0080 3e19 0000 f8a5 ab9d
00000350: bd08 0080 85ff 2792 fd50 0080 d577 ba93
00000360: 240b 0000 7213 0000 6f0c 0080 fb00 0000
00000370: f403 0000 5e06 0000 7209 0080 d41b 0080
00000380: a973 f523 ad31 0080 5216 0000 32ed a2a0
00000390: 2001 0000 000c 0000 e304 0000 d013 0000
000003a0: dc13 0000 500b 0000 6416 0000 6b0d 0000
000003b0: 1e07 0000 beff 8a20 6bb4 e296 2ccf 8210
000003c0: 8b06 0000 6507 0000 5c0d 0080 1205 0000
000003d0: 350d 0080 7d06 0080 0c03 d996 190a 0080
000003e0: 5cc9 ce9f 480d 0000 445e 7315 9206 0080
000003f0: 3c08 0080 4f19 0000 5f0f 0000 eefc f711

model.0.bias f4 [10]
-2.9617505e-08 -4.450348e-18 -3.7052318e-14 -6.449969e-08 0.02307505 0.113448806 -0.02548745 0.069054216
0.030372033 0.09954123
00000000: 9569 feb2 5930 a4a2 6ade 26a9 1483 8ab3
00000010: e307 bd3c d957 e83d 0fcb d0bc 4c6c 8d3d
00000020: c5ce f83c 46dc cb3d

exp_avg f4 [10, 64]
4e-45 2.5551796e-34 6e-45 -2.3384687e-21 -6e-45 8.145283e-21 4e-45 -5.294538e-27
6e-45 -6e-45 -3.9027476e-23 -2.2833812e-23 6e-45 6e-45 -6e-45 1.05765945e-22
-6e-45 -6e-45 5.7712225e-33 -1.4855445e-26 -4e-45 -3e-45 6e-45 -8.534999e-23
6e-45 1.7714578e-21 6e-45 2.5930168e-35 -1.3793188e-26 -0.0 -1.4133663e-21 -3e-45
1.01473605e-36 2.100707e-24 3.90767e-40 -6e-45 -6e-45 6e-45 1e-45 -2.2091714e-21
-6e-45 -6e-45 6e-45 -6e-45 6e-45 6e-45 6e-45 6e-45
2.882722e-21 -6e-45 6e-45 -6e-45 1.9600238e-36 -6e-45 -4.8646104e-25 6e-45
-6.2530323e-21 6e-45 -6e-45 6e-45 -6e-45 6e-45 6e-45 -5.88383e-40
3e-45 2.8667332e-24 -5.356965e-21 -6e-45 -4e-45 -7.543014e-24 -3.4835654e-36 -2.4213223e-32
4e-45 -1e-45 6e-45 -6e-45 -6e-45 4e-45 3.294638e-27 -6e-45
-6e-45 1.649241e-21 -4e-45 6e-45 -6e-45 1.9810183e-29 6e-45 -0.0
-2.0701533e-32 1.7554661e-25 4e-45 6e-45 -2.3751673e-22 -2.4635353e-36 4e-45 -4e-45
1.5956452e-30 1e-45 6e-45 1e-45 2.687681e-35 -4.8845567e-25 1.5983319e-22 -6e-45
4.4882083e-37 -6e-45 7.409619e-26 -6e-45 6e-45 -6e-45 -1e-45 1e-45
-6e-45 6e-45 -3e-45 -4e-45 1e-45 1.6920844e-23 -3e-45 6e-45
6e-45 -1.7707577e-25 6e-45 -4e-45 -4e-45 4e-45 6e-45 6e-45
1.5821456e-20 -1.008e-42 -9.560157e-21 6e-45 -1e-45 -0.0 4e-45 -8.0690525e-23
-1e-45 6.9673e-41 4e-45 1.9164408e-21 1.64176e-40 -6.270733e-27 -6e-45 -4e-45
-6e-45 3.670882e-26 6e-45 -6e-45 7.516861e-26 1.1691359e-22 4e-45 -3.838682e-21
4e-45 -0.0 -6e-45 4.282e-42 4e-45 6e-45 -3e-45 -3e-45
6.732485e-22 -6e-45 -9.900706e-31 1.18597095e-36 -4e-45 6e-45 -2.649741e-29 2.0666702e-22
-3.161879e-23 1.048e-42 -6e-45 6e-45 1.106057e-28 -6e-45 -4.8053148e-26 6e-45
2.221952e-27 6e-45 -1.6675325e-37 6e-45 -1e-45 -1.3843126e-29 -6e-45 -1e-45
-2.2271843e-22 1e-45 4.8e-44 6e-45 -6e-45 -4e-45 -6e-45 -8.8738125e-26
3e-45 -1.669773e-36 8.381168e-24 -0.0 6e-45 6e-45 6e-45 6e-45
1e-45 -1.8390408e-31 -2.2078498e-22 1e-45 3.0339688e-34 -6e-45 -6e-45 5.1165977e-25
1.31731425e-23 -3e-45 1e-45 -6.4196404e-24 6e-45 -1.0451789e-30 -3.8e-44 -8.7713094e-30
-6e-45 -3e-45 -6e-45 4e-45 -6e-45 6e-45 6e-45 -2e-44
3.4299923e-20 -2.27e-43 4e-45 -3.7147887e-22 4e-45 4e-45 6e-45 3e-45
-3e-45 6e-45 -4e-45 4e-45 6e-45 3.2104054e-22 -5.8790966e-28 1.4644798e-31
-6e-45 6e-45 -6e-45 -6e-45 6e-45 -6e-45 -5.731134e-28 -6e-45
-1.2094803e-22 6e-45 8.956589e-29 4e-45 6e-45 -0.0 -6e-45 8.373688e-31
00000000: 0300 0000 21d2 a907 0400 0000 90b0 309d
00000010: 0400 0080 2cdc 191e 0300 0000 ffbc d193
00000020: 0400 0000 0400 0080 adb9 3c9a c8d5 dc99
00000030: 0400 0000 0400 0000 0400 0080 f3b9 ff1a
00000040: 0400 0080 0400 0080 2aba ef09 071f 9394
00000050: 0300 0080 0200 0080 0400 0000 165d ce9a
00000060: 0400 0000 fad8 051d 0400 0000 51de 0906
00000070: e399 8894 0000 0080 f694 d59c 0200 0080
00000080: fda5 ac03 ca88 2218 4d41 0400 0400 0080
00000090: 0400 0080 0400 0000 0100 0000 97eb 269d
000000a0: 0400 0080 0400 0080 0400 0000 0400 0080
000000b0: 0400 0000 0400 0000 0400 0000 0400 0000
000000c0: f4cf 591d 0400 0080 0400 0000 0400 0080
000000d0: 8abd 2604 0400 0080 6a8d 1697 0400 0000
000000e0: 9e3b ec9d 0400 0000 0400 0080 0400 0000
000000f0: 0400 0080 0400 0000 0400 0000 2c68 0680
00000100: 0200 0000 80cd 5d18 6361 ca9d 0400 0080
00000110: 0300 0080 32e7 1199 ab2c 9484 ca71 fb8a
00000120: 0300 0000 0100 0080 0400 0000 0400 0080
00000130: 0400 0080 0300 0000 9983 8213 0400 0080
00000140: 0400 0080 ec39 f91c 0300 0080 0400 0000
00000150: 0400 0080 2de6 c80f 0400 0000 0000 0080
00000160: 1dfa d68a f150 5916 0300 0000 0400 0000
00000170: ef91 8f9b 0c93 5184 0300 0000 0300 0080
00000180: 4174 010e 0100 0000 0400 0000 0100 0000
00000190: d1e6 0e06 722b 1797 fa39 411b 0400 0080
000001a0: cfb9 1803 0400 0080 0a74 b715 0400 0080
000001b0: 0400 0000 0400 0080 0100 0080 0100 0000
000001c0: 0400 0080 0400 0000 0200 0080 0300 0080
000001d0: 0100 0000 fba5 a319 0200 0080 0400 0000
000001e0: 0400 0000 8d35 5b96 0400 0000 0300 0080
000001f0: 0300 0080 0300 0000 0400 0000 0400 0000
00000200: ef6d 951e cf02 0080 1596 349e 0400 0000
00000210: 0100 0080 0000 0080 0300 0000 0419 c39a
00000220: 0100 0080 38c2 0000 0300 0000 5bcd 101d
00000230: a8c9 0100 ca68 f893 0400 0080 0300 0080
00000240: 0400 0080 f5c5 3515 0400 0000 0400 0080
00000250: c41b ba15 0157 0d1b 0300 0000 7405 919d
00000260: 0300 0000 0000 0080 0400 0080 f00b 0000
00000270: 0300 0000 0400 0000 0200 0080 0200 0080
00000280: 147a 4b1c 0400 0080 eca5 a08d 52c8 c903
00000290: 0300 0080 0400 0000 9b5b 0690 58d8 791b
000002a0: 2be6 189a ec02 0000 0400 0080 0400 0000
000002b0: 9a35 0c11 0400 0080 9af2 6d95 0400 0000
000002c0: 8a0a 3013 0400 0000 07f9 6282 0400 0000
000002d0: 0100 0080 cf62 8c8f 0400 0080 0100 0080
000002e0: 02a0 869b 0100 0000 2200 0000 0400 0000
000002f0: 0400 0080 0300 0080 0400 0080 78b4 db95
00000300: 0200 0000 700c 0e84 891d 2219 0000 0080
00000310: 0400 0000 0400 0000 0400 0000 0400 0000
00000320: 0100 0000 9db8 6e8c d274 859b 0100 0000
00000330: 4ea4 c907 0400 0080 0400 0080 dd59 1e17
00000340: 3ece 7e19 0200 0080 0100 0000 0a59 f898
00000350: 0400 0000 0897 a98d 1b00 0080 3ee7 318f
00000360: 0400 0080 0200 0080 0400 0080 0300 0000
00000370: 0400 0080 0400 0000 0400 0000 0e00 0080
00000380: 10fa 211f a200 0080 0300 0000 928b e09b
00000390: 0300 0000 0300 0000 0400 0000 0200 0000
000003a0: 0200 0080 0400 0000 0300 0080 0300 0000
000003b0: 0400 0000 9e0e c21b e650 3a92 b019 3e0c
000003c0: 0400 0080 0400 0000 0400 0080 0400 0080
000003d0: 0400 0000 0400 0080 7ca0 3592 0400 0080
000003e0: 9a37 129b 0400 0000 9613 e310 0300 0000
000003f0: 0400 0000 0000 0080 0400 0080 f0de 870d

exp_avg_sq f4 [10, 64]
1.6000951e-12 1.1233902e-11 4.7780464e-12 3.1548337e-11 6.933488e-13 3.1117636e-11 1.755398e-14 1.6279464e-11
4.408885e-12 4.909626e-12 2.3248849e-11 2.9333966e-11 6.5219124e-12 4.9122668e-12 4.5634156e-12 2.5791936e-11
4.9887425e-12 6.4764964e-12 1.2140605e-11 1.7429076e-11 4.597704e-13 3.916376e-13 5.828501e-12 2.5276337e-11
4.1136598e-13 2.7841434e-11 4.033261e-12 1.0455775e-11 1.7090045e-11 1.5061922e-12 2.8759389e-11 1.01742555e-13
9.670779e-12 2.022404e-11 8.205514e-12 7.4139403e-13 3.4235214e-12 1.605984e-12 9.329478e-13 3.037141e-11
2.0654385e-13 4.2799223e-12 2.8681003e-12 2.4167596e-13 4.3664564e-12 3.7895793e-12 1.0696201e-12 2.8255855e-12
2.8449776e-11 4.8129133e-13 7.240203e-13 8.5977064e-13 1.0421381e-11 1.1650893e-12 1.8963999e-11 1.334656e-12
2.854765e-11 1.5280263e-12 4.009906e-12 2.874254e-12 7.323044e-13 3.0046928e-13 1.2008584e-13 8.181701e-12
1.3904837e-13 2.232459e-11 3.043267e-11 3.410856e-13 9.59524e-13 2.3151446e-11 1.12893766e-11 1.3213371e-11
7.9547805e-14 6.2599674e-12 4.912421e-12 5.6675642e-14 3.4403532e-13 4.9552257e-13 1.7811789e-11 1.5411139e-12
1.4477407e-13 2.8851583e-11 2.8425602e-13 3.5901336e-14 2.9629192e-12 1.5438725e-11 2.6979637e-13 6.582243e-14
1.3175415e-11 2.0225533e-11 1.6187077e-13 4.2214195e-13 2.6532951e-11 1.1543976e-11 2.4827623e-13 3.389201e-12
1.4496057e-11 2.423399e-13 4.148145e-12 4.5964707e-14 1.185529e-11 2.0949822e-11 2.6114092e-11 6.0068526e-12
1.070183e-11 8.87194e-13 1.9654557e-11 1.85211e-12 5.287951e-12 3.364668e-13 1.5001847e-13 1.8645734e-12
6.9714364e-12 8.221506e-14 9.889096e-13 7.4002604e-13 5.524017e-13 2.3872838e-11 4.995467e-13 6.8519734e-12
5.4983454e-13 2.0236915e-11 6.255258e-13 1.7051662e-13 4.7370744e-12 2.7949583e-13 7.1496355e-12 6.5624616e-13
3.2009253e-11 8.2932255e-12 3.1259217e-11 7.3103155e-12 3.6684327e-16 1.0970167e-13 1.6494727e-13 2.538231e-11
4.908604e-13 9.970321e-12 3.3678228e-13 2.9043096e-11 9.188532e-12 1.8187049e-11 5.9659824e-13 1.4556143e-13
2.792101e-12 1.9207167e-11 6.9400643e-13 6.108661e-12 1.9666631e-11 2.5772044e-11 3.904044e-13 2.996508e-11
3.1639312e-13 1.2150455e-12 6.317501e-13 8.67881e-12 2.940066e-13 4.7900017e-12 6.421767e-14 4.571741e-12
2.7734825e-11 5.71706e-12 1.4332499e-11 1.0926178e-11 3.9629788e-13 2.0286583e-12 1.5550892e-11 2.6389684e-11
2.4449772e-11 8.297809e-12 3.4140957e-13 2.3458494e-12 1.6161317e-11 3.9844764e-12 1.9377432e-11 8.2535254e-13
1.7602279e-11 2.2496662e-12 1.0513818e-11 5.4217394e-12 1.6247617e-13 1.5291584e-11 5.285481e-12 1.07851045e-13
2.6464487e-11 9.7292894e-14 7.996845e-12 2.700624e-12 6.0590435e-14 1.1732145e-13 6.2033868e-12 1.9778719e-11
2.0842219e-13 9.831588e-12 2.211832e-11 3.7139484e-12 2.858174e-12 6.033315e-12 3.651059e-14 5.2768727e-12
3.7022143e-13 1.2317538e-11 2.4782872e-11 1.1432898e-13 1.1154759e-11 4.10201e-12 4.0445967e-13 2.0206805e-11
2.148651e-11 5.584984e-13 1.9642653e-13 2.1430642e-11 2.090035e-12 1.3316055e-11 6.394609e-12 1.3766833e-11
8.9719736e-13 1.1628127e-12 3.4611795e-12 9.432504e-13 4.7634145e-12 3.2412601e-12 1.0348327e-13 6.3375607e-12
3.0912235e-11 6.690519e-12 6.955061e-14 2.5406285e-11 9.664223e-13 1.4098304e-12 5.142831e-12 1.1218933e-12
2.5623587e-13 2.9117922e-13 1.0760414e-13 1.6925167e-12 2.9888984e-12 2.417393e-11 1.614192e-11 1.226371e-11
4.469858e-12 1.9982795e-13 2.6015078e-12 1.4755966e-12 1.6556527e-13 1.4300051e-12 1.5712091e-11 6.565979e-13
2.3083717e-11 1.1602694e-12 1.3993119e-11 2.0188371e-12 5.6906975e-12 1.6369413e-13 2.0781586e-12 1.2881971e-11
00000000: 8031 e12b ffa0 452d d11c a82c 45c0 0a2e
00000010: 0c29 432b 58db 082e b91c 9e28 1832 8f2d
00000020: b51f 9b2c fbbd ac2c c17f cc2d 1c03 012e
00000030: 2a78 e52c c4d5 ac2c 988f a02c 47de e22d
00000040: 9986 af2c 18df e32c 6d94 552d ca4e 992d
00000050: f369 012b ed78 dc2a 7812 cd2c 4055 de2d
00000060: 1694 e72a 56e5 f42d 63e8 8d2c a0f0 372d
00000070: 5c53 962d 4bfa d32b 63f8 fc2d 971a e529
00000080: 5121 2a2d 7de4 b12d 5a5a 102d 12af 502b
00000090: aee8 702c ac05 e22b fd4c 832b 2b93 052e
000000a0: 368c 682a 1d96 962c 1ad3 492c 2d0d 882a
000000b0: 8ba1 992c 7f55 852c 2089 962b 39d5 462c
000000c0: 333f fa2d b278 072b 29cb 4b2b 0101 722b
000000d0: ba55 372d c4f8 a32b 21cf a62d 0dd6 bb2b
000000e0: 981b fb2d f30c d72b 0616 8d2c f541 4a2c
000000f0: 1820 4e2b 3026 a92a 6334 072a 1bef 0f2d
00000100: f78d 1c2a 825e c42d 24d8 052e 9e03 c02a
00000110: 7f0a 872b 6ca4 cb2d d59a 462d bc73 682d
00000120: 3020 b329 c640 dc2c 28d7 ac2c 913e 7f29
00000130: b7ac c12a 2a7a 0b2b 95ac 9c2d 7be4 d82b
00000140: 4900 232a fdc7 fd2d 9c05 a02a 6caf 2129
00000150: 357f 502c ebcc 872d c1e1 972a 0c38 9429
00000160: cbc8 672d dae7 b12d 1340 362a 11a5 ed2a
00000170: e562 e92d 7215 4b2d 60c4 8b2a 6b7e 6e2c
00000180: 7004 7f2d dc6c 882a 2bf3 912c b301 4f29
00000190: 7b8f 502d ce46 b82d b5b3 e52d eb58 d32c
000001a0: c244 3c2d 11b9 792b 21e2 ac2d a654 022c
000001b0: a10d ba2c fa69 bd2a e1e7 282a 2b35 032c
000001c0: 1e49 f52c c121 b929 392d 8b2b 7f4c 502b
000001d0: bd7c 1b2b dafc d12d 229c 0c2b 1715 f12c
000001e0: c1c3 1a2b 7b01 b22d e211 302b 12fc 3f2a
000001f0: c6ab a62c 9857 9d2a 318e fb2c 85b7 382b
00000200: 37c7 0c2e 5ee5 112d c07a 092e bc9a 002d
00000210: 8378 d325 b506 f729 d0b6 392a e243 df2d
00000220: 382a 0a2b 5566 2f2d 7197 bd2a 3d77 ff2d
00000230: 78a5 212d 98f9 9f2d 6fed 272b 3ae3 232a
00000240: 057a 442c b2f2 a82d 6f58 432b eded d62c
00000250: 51fd ac2d 7cb1 e22d 34c7 db2a aec9 032e
00000260: 0e1d b22a a100 ab2b 64d2 312b e3ad 182d
00000270: d182 a52a 8088 a82c f79a 9029 95da a02c
00000280: 46f5 f32d b326 c92c d623 7c2d 2237 402d
00000290: 8b18 df2a 0fc1 0e2c 7fc9 882d 4920 e82d
000002a0: fe0f d72d 02fa 112d 4e32 c02a 1113 252c
000002b0: 0d28 8e2d f930 8c2c 1972 aa2d eb50 682b
000002c0: cfd4 9a2d 624e 1e2c 07f6 382d b0c2 be2c
000002d0: 91ee 362a 9681 862d 61f7 b92c e5db f229
000002e0: bac8 e82d 8915 db29 97ae 0c2d 1e0a 3e2c
000002f0: 0270 8829 9b17 042a 2443 da2c b7f9 ad2d
00000300: 9ba9 6a2a 89f5 2c2d 078e c22d 46ac 822c
00000310: 4920 492c 4547 d42c d86d 2429 d8a9 b92c
00000320: 886a d02a 42b1 582d 11fe d92d 16b9 002a
00000330: 923c 442d 9f53 902c c8b0 e32a aebd b12d
00000340: 52ff bc2d 0d34 1d2b 1828 5d2a 8481 bc2d
00000350: b912 132c 2e42 6a2d 84fd e02c 4e30 722d
00000360: e289 7c2b bea6 a32b 118f 732c 2dc0 842b
00000370: 0699 a72c 5a15 642c 0b06 e929 acfb de2c
00000380: 15f4 072e d666 eb2c 329d 9c29 de79 df2d
00000390: 0803 882b 7e6a c62b 81f2 b42c 77e4 9d2b
000003a0: 7b3f 902a 59eb a32a 904d f229 5733 ee2b
000003b0: 3553 522c daa2 d42d 5ffc 8d2d d7be 572d
000003c0: e744 9d2c 7cfc 602a 9910 372c f8ab cf2b
000003d0: f168 3a2a 5d41 c92b 7c34 8a2d ddd0 382b
000003e0: e90b cb2d 1c4b a32b 682b 762d 2310 0e2c
000003f0: 3f39 c82c 9f4d 382a c73c 122c 3d9f 622d

exp_avg f4 [10]
-3.2059706e-11 -5.667736e-21 -4.4125258e-17 -6.950231e-11 0.0011165155 -0.0036847603 -0.0004442962 -0.0018122284
-0.0014467101 -3.1403408e-05
00000000: 0500 0dae fb1e d69d e97d 4ba4 52d6 98ae
00000010: 0b58 923a 057c 71bb 6df0 e8b9 4b88 edba
00000020: 899f bdba 27b7 03b8

exp_avg_sq f4 [10]
1.9599329e-10 3.2947332e-11 5.2470004e-11 2.1776674e-10 0.00069745304 0.0008824836 0.00020235646 0.00085759495
0.00078145135 0.001059406
00000000: 357f 572f 66e7 102e f9c3 662e e36f 6f2f
00000010: 48d5 363a 7956 673a a62f 5439 39d0 603a
00000020: 50da 4c3a c4db 8a3a
